…
    model.add(layers.Dropout(0.5))
    model.add(layers.Conv2D(128,(3,3),padding='same',activation='relu'))
    model.add(layers.MaxPool2D())
    model.add(layers.Dropout(0.5))
    model.add(layers.Flatten())
    model.add(layers.Dense(512,activation='relu'))
    model.add(layers.Dense(100,activation='softmax'))
    model.summary()

    Model: "sequential"
    _________________________________________________________________
     Layer (type)                Output Shape              Param #   
    =================================================================
     conv2d (Conv2D)             (None, 32, 32, 32)        896       
                                                                     
     conv2d_1 (Conv2D)           (None, 32, 32, 64)        18496     
                                                                     
     max_pooling2d (MaxPooling2D  (None, 16, 16, 64)       0         
     )                                                               
                                                                     
     dropout (Dropout)           (None, 16, 16, 64)        0         
                                                                     
     conv2d_2 (Conv2D)           (None, 16, 16, 64)        36928     
                                                                     
     max_pooling2d_1 (MaxPooling  (None, 8, 8, 64)         0         
     2D)                                                             
                                                                     
     dropout_1 (Dropout)         (None, 8, 8, 64)          0         
                                                                     
     conv2d_3 (Conv2D)           (None, 8, 8, 128)         73856     
                                                                     
     max_pooling2d_2 (MaxPooling  (None, 4, 4, 128)        0         
     2D)                                                             
                                                                     
     dropout_2 (Dropout)         (None, 4, 4, 128)         0         
                                                                     
     flatten (Flatten)           (None, 2048)              0         
                                                                     
     dense (Dense)               (None, 512)               1049088   
                                                                     
     dense_1 (Dense)             (None, 100)               51300     
                                                                     
    =================================================================
    Total params: 1,230,564
    Trainable params: 1,230,564
    Non-trainable params: 0
    _________________________________________________________________

    from tensorflow.keras.optimizers import RMSprop

    model.compile(loss='categorical_crossentropy',optimizer=RMSprop(learning_rate=1e-4),metrics=['acc'])
…
